Machine_Learning/PyTorch/my_iris_model.pt (torch, 3076 bytes, 6 tensors)

fc1.weight f4 [8, 4]
0.121016614 -0.43876117 -0.46211708 -0.043890357 -0.3870318 0.07934177 0.14807653 -0.4770878
0.34725466 -0.032223735 0.6750514 0.119120084 0.52643585 0.08080011 -0.57969725 -1.2598404
0.5302683 -0.4103129 0.9165129 0.95476633 0.39068952 0.7224902 -0.83126974 -1.0584714
0.16464484 -0.111353755 -0.42134798 -0.3553493 -0.31912696 0.14395738 -0.3496034 0.22803837
00000000: 8fd7 f73d 4ea5 e0be 9c9a ecbe 60c6 33bd
00000010: 0829 c6be f07d a23d 60a1 173e da44 f4be
00000020: 5dcb b13e 09fd 03bd 2bd0 2c3f 3bf5 f33d
00000030: 80c4 063f 877a a53d 0a67 14bf 7342 a1bf
00000040: aabf 073f 8814 d2be 97a0 6a3f 916b 743f
00000050: 7508 c83e 1ef5 383f 18ce 54bf fe7b 87bf
00000060: a898 283e 700d e4bd ecba d7be 58f0 b5be
00000070: 9c64 a3be 9069 133e 38ff b2be e482 693e

fc1.bias f4 [8]
0.18574585 -0.20286602 1.275605 2.5197537 -1.2742591 2.237633 -0.31223232 0.3780589
00000000: 2934 3e3e 1cbc 4fbe 0647 a33f a543 2140
00000010: ec1a a3bf 6135 0f40 eadc 9fbe f090 c13e

fc2.weight f4 [9, 8]
-0.2174119 0.08211541 0.10358708 -0.35338488 -0.41863802 0.09998043 -0.3494075 -0.263886
0.17289956 -0.11852983 1.0255165 -0.22634947 0.70391154 -0.9625113 0.06991243 -0.32654905
-0.3545492 -0.2716259 -0.004753619 -0.8614574 0.81832725 -1.023435 0.30476496 -0.21013083
-0.073696874 -0.060686797 0.17708807 -0.041777156 -0.13244085 -0.11843714 -0.30017546 -0.11276427
0.12664883 -0.19118746 -0.059594866 -0.91590077 0.8926622 -0.44671556 -0.20340693 0.011390448
-0.019687474 0.06268561 -0.22976097 -0.22057456 -0.051930577 -0.2718181 0.03937459 -0.1807519
-0.25721514 -0.017445713 0.4034029 0.021098785 0.9055546 -0.65521944 -0.11047746 -0.062431544
-0.12972397 -0.34292972 0.89054084 0.6731789 -0.35940343 1.0738997 -0.35234165 0.31245807
-0.337548 -0.20817648 0.122506276 -0.160508 -0.1771747 -0.31122237 0.10800251 0.2850211
00000000: 3aa1 5ebe 202c a83d 7725 d43d ddee b4be
00000010: b957 d6be 8ac2 cc3d 8ae5 b2be 111c 87be
00000020: 950c 313e c4bf f2bd 2044 833f 28c8 67be
00000030: 8c33 343f 2467 76bf 402e 8f3d 7031 a7be
00000040: 7987 b5be 8d12 8bbe 3fc4 9bbb 7988 5cbf
00000050: e57d 513f ebff 82bf 270a 9c3e 892c 57be
00000060: 63ee 96bd b892 78bd 9356 353e 861e 2bbd
00000070: 939e 07be 2c8f f2bd 99b0 99be f4f0 e6bd
00000080: 3bb0 013e a5c6 43be bf19 74bd 7978 6abf
00000090: 8385 643f e7b7 e4be e849 50be 009f 3a3c
000000a0: a047 a1bc 5061 803d 7646 6bbe 4cde 61be
000000b0: 28b5 54bd be2b 8bbe 4047 213d 0717 39be
000000c0: b4b1 83be 50ea 8ebc d38a ce3e 5cd7 ac3c
000000d0: 6dd2 673f 76bc 27bf 0242 e2bd 38b8 7fbd
000000e0: 5cd6 04be 7c94 afbe 7cfa 633f 7455 2c3f
000000f0: ba03 b8be 8c75 893f 2066 b4be 81fa 9f3e
00000100: 17d3 acbe 372c 55be 92e4 fa3d 365c 24be
00000110: 496d 35be 8a58 9fbe 6c30 dd3d 49ee 913e

fc2.bias f4 [9]
0.01785698 0.7275585 -1.6786594 -0.44347158 -1.1205406 -0.035856277 -0.08798029 0.79042554
-0.028914224
00000000: cd48 923c 4641 3a3f 50de d6bf b50e e3be
00000010: e06d 8fbf 08de 12bd 032f b4bd 5459 4a3f
00000020: 86dd ecbc

out.weight f4 [3, 9]
-0.13862252 -0.66034347 -0.16075407 -0.037407663 -0.74439144 0.22666267 -0.6750381 0.8850932
0.29019827 0.09904849 0.76510954 -1.3871468 -0.13457198 -0.9633756 0.27184823 0.48830298
0.08136941 0.20519532 -0.19359027 0.21883877 1.0442052 -0.03727195 0.9360028 -0.32192153
0.8234055 -1.2343695 -0.087566115
00000000: 10f3 0dbe 450c 29bf b79c 24be c738 19bd
00000010: 7090 3ebf 421a 683e 4ccf 2cbf 7895 623f
00000020: de94 943e efd9 ca3d 38de 433f 078e b1bf
00000030: 3dcd 09be c99f 76bf b12f 8b3e d902 fa3e
00000040: 01a5 a63d b91e 523e 873c 46be 4517 603e
00000050: 84a8 853f 79aa 18bd e19d 6f3f e6d2 a4be
00000060: b4ca 523f d2ff 9dbf dd55 b3bd

out.bias f4 [3]
0.5826533 -0.0892958 -0.70962054
00000000: c428 153f b7e0 b6bd b1a9 35bf
