Machine_Learning/PyTorch/my_iris_model.pt (torch, 3076 bytes, 6 tensors)

fc1.weight f4 [8, 4]
00000000: 2839 f83d a58d e0be 0d86 ecbe aa4f 33bd
00000010: 0829 c6be f07d a23d 60a1 173e da44 f4be
00000020: e076 be3e 297d b73d 55b8 133f 694c 40bd
00000030: 6c68 433f aa2a 263f 8eac e1be 0c2d aebf
00000040: 74ad b33e 7653 25bf d84b 513f c712 733f
00000050: 4ac8 f13e 44d2 713f feae 3fbf 33a0 93bf
00000060: a898 283e 700d e4bd ecba d7be 58f0 b5be
00000070: 9c64 a3be 9069 133e 38ff b2be e482 693e
0.12120277 -0.43858066 -0.46196023 -0.043777145 -0.3870318 0.07934177 0.14807653 -0.4770878
0.3720007 0.08959419 0.57703143 -0.04694787 0.7633121 0.6490885 -0.4407696 -1.3607497
0.35093272 -0.64580476 0.81756353 0.94950527 0.4722312 0.94461465 -0.7487639 -1.1533264
0.16464484 -0.111353755 -0.42134798 -0.3553493 -0.31912696 0.14395738 -0.3496034 0.22803837

fc1.bias f4 [8]
00000000: e063 3e3e 1cbc 4fbe 17aa 2b3f 3234 463f
00000010: 919b 27be 013a 343f eadc 9fbe f090 c13e
0.18592787 -0.20286602 0.6705641 0.77423394 -0.16367938 0.70401007 -0.31223232 0.3780589

fc2.weight f4 [9, 8]
00000000: 3aa1 5ebe 202c a83d d486 d43d a5d6 b4be
00000010: 8f3f d6be 9623 cd3d 8ae5 b2be 111c 87be
00000020: fa06 313e c4bf f2bd 64b0 553f 84b1 c0bd
00000030: a075 113f 66eb 2bbf 402e 8f3d 7031 a7be
00000040: 4285 b5be 8d12 8bbe f2fe 093e 4d1b 11bf
00000050: 7ca3 243f 4301 47bf 270a 9c3e 892c 57be
00000060: b0e8 96bd b892 78bd f858 353e 1113 2bbd
00000070: d79b 07be 3292 f2bd 99b0 99be f4f0 e6bd
00000080: 59bb 013e a5c6 43be bdb1 f03d 8a1e 3bbf
00000090: 3d36 4e3f 1a7f 9ebe e849 50be 009f 3a3c
000000a0: a047 a1bc 5061 803d 7646 6bbe 4cde 61be
000000b0: 28b5 54bd be2b 8bbe 4047 213d 0717 39be
000000c0: 02af 83be 50ea 8ebc e45e a33e 85ed 9b3d
000000d0: a4e7 4a3f 78e8 13bf 0242 e2bd 38b8 7fbd
000000e0: e2fc 04be 7c94 afbe d392 203f 9724 043f
000000f0: 3b6a 3ebe fd6d 6a3f 2066 b4be 81fa 9f3e
00000100: 17d3 acbe 372c 55be 0853 fb3d fb24 24be
00000110: 0e36 35be 923d 9fbe 6c30 dd3d 49ee 913e
-0.2174119 0.08211541 0.10377279 -0.3532001 -0.41845366 0.10016553 -0.3494075 -0.263886
0.17287818 -0.11852983 0.83472276 -0.094088584 0.56820107 -0.67156065 0.06991243 -0.32654905
-0.3545323 -0.2716259 0.1347616 -0.5668228 0.6431196 -0.777363 0.30476496 -0.21013083
-0.073686 -0.060686797 0.1770972 -0.04176623 -0.13243042 -0.11844291 -0.30017546 -0.11276427
0.12669124 -0.19118746 0.11752651 -0.73093474 0.8055151 -0.30956346 -0.20340693 0.011390448
-0.019687474 0.06268561 -0.22976097 -0.22057456 -0.051930577 -0.2718181 0.03937459 -0.1807519
-0.25719458 -0.017445713 0.31908333 0.07613663 0.79259706 -0.57776594 -0.11047746 -0.062431544
-0.12987092 -0.34292972 0.62724036 0.5161833 -0.18595211 0.9157408 -0.35234165 0.31245807
-0.337548 -0.20817648 0.12271696 -0.16029732 -0.17696401 -0.31101662 0.10800251 0.2850211

fc2.bias f4 [9]
00000000: 0ccc 933c ce94 023f 95de 2cbf 530d e3be
00000010: ee82 11bf 08de 12bd 47dd 833c 2505 f53e
00000020: b123 ebbc
0.018041633 0.5100831 -0.67527133 -0.44346103 -0.5684041 -0.035856277 0.016096724 0.47855487
-0.028703542

out.weight f4 [3, 9]
00000000: b918 0ebe 64e1 06bf e5b8 20be 6430 19bd
00000010: f795 3cbf 421a 683e 4bc7 0abf 2b66 223f
00000020: e697 943e 5c25 cb3d fc2a 023f 7cbe 73bf
00000030: 88ce 09be 23ab 17bf b12f 8b3e 2818 c13e
00000040: 3689 b93d ad55 523e 4a17 46be 02c7 7f3e
00000050: 91b5 213f b2b3 18bd 1605 323f e6d2 a4be
00000060: e17f 453f b08f 80bf c7c3 b3bd
-0.13876618 -0.5268767 -0.15695532 -0.037399665 -0.7366633 0.22666267 -0.54210347 0.63437146
0.2902214 0.09919235 0.5084684 -0.9521253 -0.13457692 -0.5924551 0.27184823 0.37713742
0.09059374 0.20540495 -0.19344822 0.24978259 0.63167673 -0.037280746 0.6953901 -0.32192153
0.7714825 -1.004385 -0.08777576

out.bias f4 [3]
00000000: d760 123f 59a7 8dbe ea9f 1abf
0.57179016 -0.2766674 -0.6040026
